models/coup_ppo_0_20250327_153209.pt (torch, 162530 bytes, 11 tensors)

policy.0.weight f4 [128, 10]
00000000: 87a9 76be cf32 6abe 5f00 eabd fcec 8cbd
00000010: 6e86 a0ba d63a 7ebe da48 483c 0921 8abe
00000020: a0ff 8dbd df7d b3bc 1ef6 083d 1c69 6f3e
00000030: 5bdd 8c3e 5df7 373c 87b1 d53d 7838 d83d
00000040: bab0 72be 3cb9 2b3a 9772 593e 537d 293e
00000050: 65dd 1d3e ad54 3f3e c7e2 7fbd aa15 583e
00000060: 503f 1abe c4a5 e8bd eadf 6a3e 079f 7f3d
00000070: 6433 fc3d 6d99 4abe 296d 41be 927e 8abe
00000080: 6187 9bbc 0e84 9c3e 7d13 c53d 970b fcbd
00000090: 556d adbd 0f71 c33d 4d58 c0bd 31fd 973e
000000a0: 0126 32be d33b 2abd be3c 083e f4c2 8f3e
000000b0: 35cb 263e 6ae5 863e f625 4abe daa1 cbbd
000000c0: 4cda 3e3d c585 0dbe d172 81be bae8 6f3e
000000d0: 0c9a 863d e853 adbc 51a4 3abe de8d 0e3d
000000e0: 4645 cdbd 3fee 73be ab56 633e a72f 953e
000000f0: 17f1 9ebe 434f d43d 3901 e3bd 553e 95be
00000100: 1f5a 85bd 8cfd 9c3e 8b46 833e 4c46 d2bc
00000110: c0ea 8ebd 3304 913e d03d 3c3e ec01 95be
00000120: b0fb 89bd 3b99 643e 83b7 813e 3fa8 90be
00000130: 156a 85bd 6b55 44be 4574 853e 37df 98be
00000140: c8b9 79be 01d9 a33c e603 383d 4070 3e3e
00000150: 3a81 413e 9d5e 7d3e c4e6 4c3e 9322 1a3e
00000160: 0fb2 813e f593 72be 77b4 94bd 98ab fb3d
00000170: 3ab0 9f3e 7fbe 8ebe db3b 49be c0ce 443d
00000180: 9cc2 a63d d466 babd e689 c83d 2b62 fbbd
00000190: 413b 0ebd d0b2 6cbe 2cc8 d1bc 223f 6c3e
000001a0: bf99 813c adff 69be ef57 723e 9a81 14be
000001b0: ab7a 2bbe 01ed 9dbe 8b12 a5bd a3d6 a03e
000001c0: 8223 043e 931b f53d 3689 44be efcf 52be
000001d0: e524 3abe 8429 53bd 9767 153d 6ae4 46be
000001e0: 6a47 5fbe b2d5 99be cff6 9abe 27af f23d
000001f0: 3a83 5d3d cb78 2d3e 157e 953e fbb3 8abe
00000200: aff2 0a3e 1e51 6cbe f103 0c3d 8483 0bbe
00000210: 16e9 6cbd 29a1 e23d 27da 4a3e 1159 993d
00000220: 2fc6 bf3d fffd 9e3e 6113 9a3e 5a97 3cbe
00000230: 1e10 ff3d 7590 e73d 4fb4 94be b487 c8bc
00000240: 1fac cf3d d990 e8bd b4d7 81bd 9539 80bd
00000250: 9626 913d a0e0 2f3d a389 973d e72b 95bc
00000260: e896 22be 240a 263e ab3a 9fbd e2bb 06be
00000270: 80ae d53d 15f7 953e e5b9 a13e 03e1 e7bc
00000280: a5d2 8f3e c5c4 93be 199a 163e 6d55 3ebe
00000290: 845b f6bc d434 8d3e 4219 2bbe 0d9d 313e
000002a0: 048f 423d a53c 233e c922 5e3e a014 06bb
000002b0: b39f 033e c232 7fbb 9b7e 4fbe 35b2 c03d
000002c0: e345 663e 3d4c 2cbd f5fd 8d3e 2be6 94be
000002d0: 01b2 8b3e fc01 02be ac5f 9f3e 7a1f 993e
000002e0: e71f 03be 9a86 023e 4575 2f3e 410e 0ebe
000002f0: 3264 503e 1af1 8fbe e56a 84be 792e 9f3e
00000300: 2d25 7b3d 1a2a 7c3e 21d6 933e cab3 903c
00000310: 7bcf 05be 174b 84be 1d0e 653b d608 b1bd
00000320: 05ef 793e 3031 613e 610d 803e 2bc4 753e
00000330: e81f 75bd 4bba 58be 8397 7c3e 9dc4 94be
00000340: 117f 2c3e 06a5 8dbc 48d1 82be a1ae 63bd
00000350: a2b0 7dbe 31fc cb3d 2125 933e 9b8f 313d
00000360: 9384 03bd 9f71 d73d e288 90bd f19f 73be
00000370: 9dea 0bba 38c4 803e 3710 9e3e db95 2b3e
00000380: 18b8 963c 9c67 2d3e 01f9 91be d819 7b3d
00000390: 7d95 1dbe cae5 373d 32e2 503d 2c92 a13e
000003a0: 828b 413e 7021 1d3d 99d7 90bc 9057 023d
000003b0: b8ab 943e 4e3a 43be 5bb2 0e3d be32 2a3e
000003c0: 32fe 8a3e f70c 843e 084a 943e 00a5 793e
000003d0: fd98 5d3e 0b47 633e 079a 183d 8a14 523e
000003e0: 226f eebd 37dd edbd 264e 043e 612f 7f3e
000003f0: de03 033e 64c7 b93b 60ed 76be 41d6 4bbe
-0.24088107 -0.22870944 -0.11425852 -0.06881139 -0.0012247094 -0.24827132 0.0122244 -0.2697833
-0.06933522 -0.021910606 0.03343784 0.2337994 0.2751263 0.01122841 0.10434251 0.105576456
-0.23700228 0.00065507344 0.21235119 0.16551714 0.15416487 0.18684645 -0.06247213 0.21102014
-0.15063214 -0.11359742 0.22936979 0.06240752 0.123144895 -0.1978509 -0.18889298 -0.2704969
-0.018985452 0.305695 0.09622858 -0.12306898 -0.08468119 0.095430486 -0.09391842 0.29685357
-0.1739731 -0.04156096 0.13304421 0.28078425 0.16288455 0.26346904 -0.19741043 -0.0994298
0.046594903 -0.1382056 -0.2528291 0.23428622 0.06572351 -0.021158174 -0.18226744 0.034803264
-0.100229785 -0.23821352 0.2220103 0.29137918 -0.31043312 0.103666805 -0.110842176 -0.29149118
-0.0651133 0.3066219 0.25639758 -0.025668286 -0.06978369 0.28323516 0.18382955 -0.2910303
-0.06737459 0.22324078 0.2533532 -0.28253362 -0.06514374 -0.1917321 0.2606527 -0.298578
-0.24387276 0.020000936 0.044925593 0.18597507 0.18896952 0.24743123 0.20009905 0.15052252
0.2533116 -0.23689254 -0.072609834 0.12288588 0.31189138 -0.27879712 -0.1965174 0.048048735
0.081425875 -0.09101644 0.09791927 -0.122745834 -0.034724478 -0.23115087 -0.025608145 0.23070958
0.015820382 -0.22851439 0.23666357 -0.14502564 -0.16746013 -0.30844882 -0.080601774 0.31413755
0.1290417 0.1196815 -0.19192967 -0.20587133 -0.18178137 -0.051553264 0.036475744 -0.1942307
-0.21804586 -0.3004585 -0.30266425 0.11849814 0.054080226 0.1694061 0.29197755 -0.2709044
0.13569139 -0.23077819 0.034183446 -0.13624388 -0.057839476 0.11065895 0.19809781 0.07487691
0.093639724 0.3105316 0.3009291 -0.18417111 0.12454246 0.1130685 -0.29043815 -0.02447877
0.10140251 -0.113557525 -0.0633997 -0.06260983 0.07087438 0.04293883 0.07399299 -0.01820941
-0.15877879 0.16214806 -0.07774862 -0.13157609 0.10433674 0.2929007 0.3158714 -0.028305536
0.28090397 -0.2886106 0.14707221 -0.18587275 -0.030072935 0.27579367 -0.16708854 0.17345066
0.04749967 0.15941103 0.21692957 -0.002045907 0.12853889 -0.0038940166 -0.2026314 0.0940899
0.22487597 -0.042064894 0.27732816 -0.29081854 0.27284244 -0.1269607 0.3112768 0.29906827
-0.12805139 0.12746659 0.17134579 -0.13872625 0.20350721 -0.28113633 -0.25862804 0.31090143
0.06131475 0.24625435 0.28874305 0.017663855 -0.13067429 -0.2583854 0.003495104 -0.086442634
0.24407585 0.2199142 0.25010207 0.24000613 -0.05984488 -0.21164815 0.24667172 -0.29056254
0.16845347 -0.017290603 -0.25550294 -0.05558646 -0.24774411 0.09960211 0.28739265 0.043349843
-0.032108855 0.105197184 -0.07057358 -0.23791482 -0.00053373893 0.25149703 0.30871746 0.16756384
0.01839833 0.16934055 -0.28510287 0.061303943 -0.15389057 0.04489688 0.050996967 0.31556833
0.18900874 0.038361967 -0.01768093 0.031821787 0.2903726 -0.1906521 0.03483806 0.16620919
0.2714706 0.2579114 0.2896273 0.24379349 0.21640392 0.2219507 0.037256267 0.20515648
-0.11642291 -0.11614459 0.12920436 0.24920417 0.12794444 0.005669521 -0.24113989 -0.1990595

policy.0.bias f4 [128]
00000000: bfcd 703e 6783 f6ba 753f 9dbe bda2 4fbc
00000010: f5b1 343d fa26 893d b797 30be b15a 67be
00000020: b5a9 c03d 9e81 20be eb21 d53d 178c ae3c
00000030: 7214 6ebe da89 5abe ec05 97bd c7ca 84be
00000040: 29a0 9f3e 5350 70be 660e 33be 315c b33d
00000050: df4c 303e bdac 513d 03f0 8fbd 5c4a 8c3e
00000060: 9d0e a2bd 9e9c bf3d cd90 0f3e 9322 69bd
00000070: 2a98 b13d be09 e3bd fb47 333d 02a1 90be
00000080: 339c 97bd 7584 79be 1a64 353e b2e5 b7bd
00000090: ec05 973e f5c0 6a3e 10eb 693e fbed 78bd
000000a0: 52bf 8d3e f23d 8dbe 01bc e93d d573 99be
000000b0: d2e6 003e 2249 de3d e24d 723e 8067 b4bd
000000c0: 0f1c 1bbe 5a97 3a3d a19e 223e 50bb 433e
000000d0: 0c93 aebc 696b 5b3e 02b5 6fbd 62c9 6fbd
000000e0: 16b1 eb3d 7130 643c b336 62be af0b a7bd
000000f0: 8bd0 afbd 7347 38bd f756 47bd 10aa 7bbe
00000100: 05d5 a13e d48e cd3d 2c7d 853d 2fb8 eb3d
00000110: a273 8d3e 12da 683e a424 69be 92b8 46be
00000120: cd5f 37be 490e 2bbe 7f38 7b3c bc00 983e
00000130: 7232 493e 9d46 35be 22d0 b73d 08b5 75be
00000140: 7ce2 2b3d c4a7 ecbd 06fe 1bbd 1194 93be
00000150: 564f 90be 5f1d 36be 22f6 e6bd 371c 86ba
00000160: cc90 883c d2ae 143e 83e4 8dbe f577 98be
00000170: 6bcd 863e 9f29 67be cb35 86be 52fa 99be
00000180: c7e0 8e3e 2bb8 883d 4693 89be 9a52 5cbd
00000190: 85c1 af3b 6b24 9c3e 0572 813e c41c 443e
000001a0: 44fe 923e 57b1 cdbd 7fe3 a6bd 7671 d7bd
000001b0: a658 2d3e a3d9 033e 599c 7a3e bed7 8fbe
000001c0: c83f 733e f68c 8d3e b367 c0bd f0aa 26bd
000001d0: 01b5 583e 95b7 84be da02 5cbd 33d0 6fbe
000001e0: a9ea 9cbe a4f7 923d 3fe0 7c3c 8119 023e
000001f0: 0fe8 6c3c 71ef aa3d 925b 183e 92f4 e73d
0.23515986 -0.0018807471 -0.30712476 -0.012673077 0.044115026 0.06696887 -0.17245375 -0.2259319
0.09407369 -0.15674445 0.1040686 0.021307034 -0.23249987 -0.21341649 -0.073741764 -0.25935957
0.3117688 -0.23468141 -0.17485961 0.087578185 0.17216824 0.051190127 -0.070282005 0.27400482
-0.079129435 0.09356044 0.14020081 -0.05691774 0.08671601 -0.110858425 0.043769818 -0.2824784
-0.074028395 -0.24366935 0.17713967 -0.08979358 0.29496706 0.2292517 0.22843575 -0.06077383
0.27685028 -0.27586323 0.11412812 -0.29971185 0.12588051 0.10853793 0.23662522 -0.088088036
-0.15147422 0.045554496 0.15880825 0.19114423 -0.021310352 0.21427692 -0.058522232 -0.058541663
0.11508386 0.013927565 -0.22091179 -0.08156525 -0.08584698 -0.044990014 -0.04866692 -0.24576592
0.31607834 0.10037008 0.06518015 0.115097396 0.27627283 0.22739437 -0.22767884 -0.19406345
-0.17907639 -0.16704668 0.015333294 0.2968806 0.1964815 -0.17702718 0.08975245 -0.23994839
0.04196404 -0.11555436 -0.038084053 -0.28823903 -0.2818553 -0.17784642 -0.11277415 -0.0010231797
0.016670607 0.14519814 -0.27713403 -0.2977902 0.26328596 -0.22574471 -0.26212916 -0.30073792
0.27905867 0.06675752 -0.26870173 -0.053789712 0.0053636455 0.30496535 0.25282302 0.19151598
0.28709614 -0.100435905 -0.0814886 -0.10519688 0.16928348 0.1287599 0.24473704 -0.28094286
0.237548 0.27646607 -0.09394779 -0.040690362 0.21162798 -0.25921312 -0.053713657 -0.23419265
-0.30647781 0.0717614 0.015434324 0.12705041 0.014459624 0.08346451 0.14878681 0.11325945

policy.2.weight f4 [128, 128]
00000000: a83d 9dbd 15f0 97bd 903e 323d ba00 88bd
00000010: 9dc4 a0bd 811b c93c 90d5 df3c 25f3 86bd
00000020: 6326 5e3d 2ede 98bd 7a53 12bd 73b4 a33c
00000030: cd08 a13d b635 c3bc 8232 3c3d eb50 6c3d
00000040: 26e6 093d e5bb 3f3d dc1f 493d 6ee1 75bd
00000050: ab3a 043d 8d25 1abd f36a 1dbd 405b b2bd
00000060: 6227 213d 3e77 23bc 1805 8ebd 48e5 fc3b
00000070: b0b9 a33c e6e7 a23d 21de a7bd 7ccd 083d
00000080: 8242 223d a68b 5cbd 96d1 2f3c 1d3b a13d
00000090: c2a7 1a3d 9d0f a1bd 537d 93bd ec19 613d
000000a0: 4ec5 9a3c 06d3 2f3d ecba 4e3c 025f 3b3d
000000b0: 8891 20b9 4297 6a3d 6c61 a33d 7ce5 46bd
000000c0: 0719 aebc 2418 a8bd 86a6 203d 589a bf3b
000000d0: bb3f 30bd 5d48 2dbc 2f66 be3c 1377 04bb
000000e0: de02 f1bb 0d9f e33c ac9f 8f3c 765e 3bbd
000000f0: 732c 86bd 3060 c2bc 540c 8c3d c8b5 9f3d
00000100: a50f e33a e1d7 3fbd 96a0 193d bc67 13bd
00000110: 3028 98bd 1384 9cbd c8cb 2ebd 19d6 bd3c
00000120: 91b3 203d 5c0e 04bd 382a 68bd 008a 86bc
00000130: 704b 6cbc a9a7 05bd 1d17 90bd a76e 673d
00000140: 540a 343c 69db 843d 21f1 043d d5a6 b03d
00000150: 4675 f1bc 8e3b 1bbd 5ddd 493d 937b 013d
00000160: c543 853d 193b 6abd 82f1 2bbd 66d0 f0bb
00000170: 0ddd 97bd db3c 71bb 350e fe3c 4bd1 913d
00000180: 7c85 fbbc 300c 17bd b0ff 993d cd7c ab3d
00000190: 2c93 f7bc d526 a7bd 069c a1bc 9e82 4a3d
000001a0: e30a f13c 021c 9fbd 1c35 483d f3fa 42bd
000001b0: ca69 803c e926 663d 4f06 833d 4057 0bbc
000001c0: f714 7dbd a657 2a3d 9ccd 8ebc 6c5c 18bd
000001d0: 28ca 863d 6318 7ebd f3ae 53bd 2d08 913d
000001e0: 3648 79bb de42 b33d 421f 3e3d fd6b 913d
000001f0: 857d e2bc 2003 7abd cc67 553d 7e7d 203d
00000200: 7c93 93bd 262d 1bbd 427d e13c 982b 85bd
00000210: a2f0 aa3d d5f5 d6bc 05f0 a03c 06bc c63c
00000220: 3de1 ebbb 9072 b1bd b734 24bd 74a6 4fbd
00000230: eede 65bd 6943 13bd ebf8 a63d 1cf2 65bb
00000240: d155 5abd 1d22 a43d 9391 5b3d 0fba 93bc
00000250: 6c48 37bc fe84 693d dc08 a1bd 151d 45bc
00000260: c340 603c 94d5 393d 8aff fbbc 7491 cc3c
00000270: e0d0 82bd a2b4 263c 806a ae3d f8c2 1f3d
00000280: 844e a3bd 68e4 48bb 275b 6bba ea2e 28bd
00000290: ae58 5ebd 8ce8 3a3c adc5 4dbd fc13 05bd
000002a0: 6e99 973d b754 713d 405e 923d 805c 92bd
000002b0: c5ed 87bd 0177 b4bd b93d b03d 2f16 1abd
000002c0: 0d9b 2dbd 9788 92bd 921f a2bd ba36 843d
000002d0: 5b7b 9bbd 4212 a13d 2f20 8abd 4e07 50bd
000002e0: d35e dabc 5966 10bd 4279 9ebd f84e 4d3d
000002f0: 2497 ad3c 0079 fd3c c5ac 0a3d 8203 45bd
00000300: 0122 9bbd 27aa a03d a75b e0bc 5f64 2b3c
00000310: a30d 5abd 0601 23bb ebde 7c3b a7c9 473c
00000320: 85a4 a8bd 8a25 4bbd 4215 7cbd 33b1 ab3d
00000330: 5a29 afbc 4fa6 b4bc cb32 30bd 6b0f 903c
00000340: e6a1 4bbd 105c 81bd e245 fabc 4680 223d
00000350: e8d7 363d 79ef 03bd 96b6 143d ad93 973d
00000360: ee2c a73d d78b 483b c158 5d3d 8f24 1abd
00000370: 3151 a63d 59c2 ac3d e41c 7d3d bfab 7fbc
00000380: 2c3c aa3d d866 de3c 51cf 903d d855 ad3c
00000390: 5c75 0f3b 0afa 50bd 9327 2bbd df28 a63c
000003a0: 139b 9a3d d5e5 8e3d f0c8 aabd 9538 78bd
000003b0: 018a 7d3d 7211 c43b e332 2bbd 54ee 8b3d
000003c0: a234 853d c449 453d d232 87bd 3e87 d9bc
000003d0: ee74 023d fde6 803d 0c54 0d3d 2932 463d
000003e0: 768f ff3b 8e09 81bc 43a7 83bd f8bd 8f3c
000003f0: 76dc 46bc 3ee6 78bd f463 9c3d e936 313d
-0.076777756 -0.07418839 0.043516695 -0.066407636 -0.07850001 0.024549248 0.027323514 -0.06589345
0.054235827 -0.074642524 -0.03572414 0.019983506 0.07863007 -0.023829322 0.045946606 0.057694357
0.033666752 0.04681005 0.04910265 -0.06002944 0.032282513 -0.037633467 -0.038432073 -0.08708811
0.0393442 -0.00997716 -0.06934565 0.007717762 0.019986004 0.07954387 -0.081966646 0.03339909
0.039614208 -0.053844117 0.0107311215 0.07872603 0.037757643 -0.07864306 -0.07201638 0.05495636
0.01889291 0.042925857 0.012617808 0.045744903 -0.00015313004 0.057273157 0.07977566 -0.048558697
-0.021252168 -0.082077295 0.03922131 0.0058472566 -0.043029528 -0.010576335 0.023242084 -0.0020212575
-0.007355078 0.027785802 0.017532192 -0.04574438 -0.06551447 -0.023727506 0.06838289 0.07798344
0.0017323388 -0.046836738 0.037506662 -0.0359876 -0.0742954 -0.07642379 -0.04267481 0.023173379
0.039233748 -0.032240257 -0.056680888 -0.016423225 -0.014422283 -0.032630596 -0.070356585 0.05650201
0.010988791 0.06487162 0.03245652 0.08625571 -0.029474866 -0.037898593 0.049283374 0.03161199
0.06507067 -0.057185266 -0.041978367 -0.007349062 -0.07415209 -0.0036809954 0.031012634 0.071199976
-0.030703299 -0.036876857 0.07519472 0.08373413 -0.030221544 -0.081617035 -0.019727718 0.049440973
0.029424137 -0.07769014 0.048878774 -0.047602605 0.015675444 0.05618945 0.06397688 -0.008504689
-0.06178757 0.041587494 -0.017432027 -0.037197515 0.06581527 -0.062034976 -0.051680516 0.070816375
-0.0038037426 0.08752988 0.04641653 0.07100675 -0.027647743 -0.061038136 0.05210094 0.03918218
-0.07205865 -0.037884854 0.027525548 -0.065024555 0.08346678 -0.026240269 0.0196457 0.024259578
-0.0071984814 -0.08664429 -0.040089335 -0.05069585 -0.056120805 -0.03595296 0.08152946 -0.0035086935
-0.053304497 0.08014319 0.053605627 -0.018033056 -0.0111867 0.057011597 -0.07863018 -0.0120308595
0.013687315 0.0453697 -0.030761499 0.024971701 -0.06387496 0.010174902 0.08516407 0.039004296
-0.0797396 -0.003065372 -0.00089781213 -0.041060366 -0.05428379 0.011407983 -0.050237346 -0.03248976
0.07402311 0.05891868 0.07146883 -0.07146549 -0.06637148 -0.08811761 0.08605523 -0.037618812
-0.042384196 -0.07154959 -0.07916178 0.06455751 -0.075918876 0.078648105 -0.0674442 -0.050788216
-0.026656544 -0.035253856 -0.07737972 0.05012414 0.021190234 0.030941486 0.033856172 -0.04809905
-0.07574845 0.07844954 -0.027387453 0.010460942 -0.05323566 -0.0024872436 0.0038585018 0.012194074
-0.082345046 -0.049596347 -0.06154371 0.083834074 -0.021382023 -0.022051958 -0.04301719 0.017585477
-0.049714945 -0.06316388 -0.0305509 0.039673112 0.044639498 -0.0322108 0.03630694 0.07401214
0.081628665 0.003060093 0.05403972 -0.03763252 0.08120955 0.084355064 0.06179513 -0.015604912
0.08312258 0.02714865 0.070707925 0.021159098 0.002189002 -0.051019706 -0.041785788 0.02028316
0.07549109 0.06977431 -0.08339107 -0.060600836 0.06189919 0.005983525 -0.041796576 0.06832567
0.065041795 0.04816605 -0.0660149 -0.026553746 0.031849794 0.062940575 0.03450398 0.04838768
0.0077990843 -0.015751626 -0.06428387 0.017546639 -0.012137523 -0.06076645 0.07636252 0.043265257

policy.2.bias f4 [128]
00000000: 253d 90bd 439a 9b3d 7785 5bbd d1fa c3bc
00000010: d9fe 833d ba9c 36bd 0a33 463d 9dc6 a3bd
00000020: 612e 643c 581b 37bc 19ad 973c 66ee 34bd
00000030: 3082 9ebd 94a4 033d 93aa bc3c 8ef2 8f3d
00000040: 2fdf 9a3d 50c2 91bd 71c8 0f3b c39d b13d
00000050: af4a a5bc 02b5 053d f0ec 3bbd 4963 0a3b
00000060: a78b 74bc 6941 43bd a46f 7dbd 8d13 a53d
00000070: b081 7039 26f2 b83b a5d3 a13d cef0 2c3d
00000080: 1ea7 813d de48 2ebd 9f7f 923d 83a5 9fbd
00000090: 5d7d 253d bb58 603d 7d81 203d 74c8 093d
000000a0: 1378 74bc 0a1e 09bd 992f 733d 7cc7 953b
000000b0: 2a98 023d 6bc4 9cbc e6f4 61bc 393b a8bc
000000c0: deb9 603d cec0 383d 497b 0e3d 1b43 b13c
000000d0: 79a9 5fbd 4f29 adb9 c8e3 0cbd b424 473d
000000e0: ae56 363d 61cb 073d b7b3 1d3d 0118 cdbc
000000f0: 799f 7d3d 0145 3a3d 12d5 84bb 641d f4ba
00000100: 8c58 973d a425 b5bb 7602 853d cb54 433d
00000110: 75fe 803d 1482 abbd eb41 58bd f55f 963c
00000120: 5549 5cbd d835 6d3c 9553 853d 8138 99bd
00000130: 97d6 2c3d 57e0 a5bd 5cd2 563d 574c 9f3d
00000140: 6819 aebd 1ece 3abc 3849 90bd 79e8 a2bc
00000150: 0949 a13d 7b5c 21bc 3d93 6dbd 9d80 d5bb
00000160: bafa 953d d6e5 893d ffdd f1bc a519 00bd
00000170: 4a02 903d 8ffa c63b 7618 4e3c 2a7c 0dbd
00000180: 0bea 193d 8683 91bd e211 8dbd edc3 523c
00000190: c6ba 86bd a1ac 493d 9915 0d3a fedd 363d
000001a0: 4460 61b9 8312 3fbc 32cd dcbc 8919 99bd
000001b0: eb86 763c 9289 8b3c 09c3 0fbd ea79 503d
000001c0: 06c0 c6bc e341 5fbd f4cb abbd 1b9a 0fbd
000001d0: c3b1 81bd b857 86bd 6b93 aabd b361 6abd
000001e0: 844c b8bc 7b7f a93d 4c6e 9e3d 88d7 b43d
000001f0: 00f6 a43d 4c3b 033b 1697 663d 20fd d73a
-0.070429124 0.075977825 -0.05359408 -0.02392331 0.06445093 -0.04458306 0.04838852 -0.07996867
0.013927073 -0.011175953 0.018515157 -0.044172667 -0.07739675 0.032139376 0.023030555 0.070286855
0.075621 -0.0711714 0.002193954 0.08672669 -0.020177213 0.032643326 -0.045880258 0.0021116307
-0.014925874 -0.0476698 -0.061874047 0.0806037 0.00022936496 0.0056441007 0.07901696 0.042221837
0.06330703 -0.04254996 0.07153248 -0.07795241 0.04040276 0.05477212 0.03918599 0.033638433
-0.014921206 -0.033475913 0.059371565 0.0045708995 0.031883396 -0.019136628 -0.0137912985 -0.020536052
0.054864757 0.045105748 0.034785543 0.021638444 -0.05460498 -0.0003302791 -0.034396917 0.048618987
0.044516258 0.03315294 0.038501468 -0.02503586 0.061919663 0.045475964 -0.0040537203 -0.0018624482
0.07389936 -0.0055281688 0.0649461 0.047688287 0.06298534 -0.0837442 -0.05279724 0.018356303
-0.053780872 0.014478169 0.06510083 -0.074814804 0.042196836 -0.0809943 0.052446708 0.077782325
-0.085009396 -0.011401681 -0.07045215 -0.019886242 0.078752585 -0.009848709 -0.058001745 -0.006515576
0.07323213 0.06733291 -0.029524801 -0.031274457 0.070316866 0.0060723494 0.012579074 -0.03454224
0.037576716 -0.07105164 -0.068881765 0.012864095 -0.06578593 0.049236897 0.00053819414 0.044645302
-0.00021493534 -0.011662128 -0.026953313 -0.074755736 0.015046815 0.017033372 -0.03509811 0.050897516
-0.024261486 -0.054506194 -0.0838851 -0.035059076 -0.063327335 -0.065597 -0.08328899 -0.05722208
-0.022497423 0.08276268 0.07735881 0.08830172 0.08054733 0.0020024357 0.05629643 0.0016478635

policy.4.weight f4 [27, 128]
00000000: 744d 953d d200 84bd ee51 ab3c 9fa1 293d
00000010: 43f1 6d3d b55e 91bd b585 963b 0fad 08bb
00000020: a983 393d adc7 92bc 3ac5 8a3d bc91 a23d
00000030: 27fe 873d 6ef8 ad3c d624 63bc ba39 6a3c
00000040: 8d18 84bd 4f5c 2fbc e5bc d53c 96f2 a03d
00000050: f6d8 a83d 831f a2bd 201d 0c3d 0324 0cbd
00000060: ed7e 303d ad36 cd3c 4ed0 2b3c 5d54 f93c
00000070: cf75 283d 5086 36bd 3b97 8e3d b7e8 8dbd
00000080: 871e b2bd 27c5 1cbd cfdf 84bd 1f9a dbbc
00000090: 62e1 d83c cd8f 8a3d cad8 7c3c 2f39 f53b
000000a0: 2e5b 013c d57f a8bd 738f 7bbc e620 b63c
000000b0: 9004 8bbd 32fc 6b3d 0799 423c 7e04 403d
000000c0: 1e72 72bd 7b88 6cbd 6374 4ebd d0c3 923d
000000d0: 55c9 e23c 1c5e ba3c 6c5f 4f3d c410 d9ba
000000e0: 6de2 933d 3607 91bd eb16 ba39 8854 59bd
000000f0: c941 aabd 6a68 9bbc 6115 dbbc f188 12bc
00000100: 7317 34bc a467 e23b dca3 07bd 02cf dfbc
00000110: 36a0 1f3d e785 72bd 1f5a 8c3d 1271 9bbd
00000120: a9f8 873d a124 933d ead3 a2bd 97bb fb3a
00000130: 2338 963d 97a8 00bc a19f 80bd 6a90 cb3c
00000140: 01f8 4d3d 34b2 e13c 4fb6 2bbc db18 583d
00000150: c6d2 63bd b64c 22bc c8ca 533c b415 c5bc
00000160: 1438 a4bd e5ca 76bd 21b6 b63d 8cd1 c63b
00000170: 96fa afbd e185 713d 9ea4 323c a520 a7bc
00000180: 48d6 a1bd 7336 2e3d 1346 ae3d 2d7f e6bc
00000190: fa06 063d a37e 90bc c5a1 313d 081b 99bd
000001a0: 50d6 873d 8254 3b3d 9096 91bc fe10 4cbd
000001b0: ce85 483d fe6a 2bbd 538d 873d a2ba 9ebd
000001c0: 668a 473d d105 b53d 2be3 09bd 103f 1a3d
000001d0: bd39 46bc ed0e f23c 2caa c13c cd26 fdbc
000001e0: ef72 69bb 55e6 6fbd b9f2 4fbd 8be2 773c
000001f0: 405e 07bd e2df b2bd 37a8 423d 5849 af3d
00000200: f43f 5f3d 6440 6e3d f90b f5bb 3e91 8a3a
00000210: c2fe 493d cf07 893d 6c3d 7c3b bda9 3b3d
00000220: b9a7 1bbd 8103 543d 3e70 89bd 5812 19bd
00000230: 2514 3b3d 7ad1 a03c 64ed e73c ceeb 94bd
00000240: ac01 303d 2c8d d83a 8e53 79bd 2e53 3ebd
00000250: 34da a9bb 63f3 5abd bfba b13d a213 8d3d
00000260: 6547 cd3b d821 d4bc 51e1 a03c 19a2 1b3d
00000270: d156 8a3d ed9b 98bd c9f4 973d a5fc 593c
00000280: 2d03 903c 371d b63d 598b 5a3b 7265 c9bc
00000290: a802 323d a45b 383d 2b7c 17bd b7b2 423c
000002a0: dd8b 9ebd d97a 9e3c a980 58bd 4679 e23b
000002b0: e29a 0cbd d29b 32bc 7fbf 0e3a c67f 89bd
000002c0: ec82 25bd 677c 8cbc c6ce 24bd 99f7 a73d
000002d0: a290 3cbc 9423 163d fe85 85bd 7d9e b23d
000002e0: 4e5d 7e3c 6e1b d13c 49e3 98bc 34b6 22bc
000002f0: 97fe ab3c 8a99 483c d08f fd3b f9e0 54bd
00000300: 26d1 8abd 5f2f 9e3d 5324 503c a7d7 813d
00000310: 3cad 5b3d fc6f 873d 27bf 8fbd ff18 6abd
00000320: 5639 4bbd c816 9cbd 73cb dabc 327f b43d
00000330: 13c8 36bd 408c 863c 33a7 383d 3aa1 a8bd
00000340: 77b6 54bd 18c3 ca3c 6e5b 173d 4d71 123d
00000350: 631c 80bd 94f5 28bd 1eae cfbc 4bc7 a63d
00000360: 7e48 06bd c2e5 cdbb 3a2f 29bd 7ef0 44bd
00000370: 0774 64bd 4dfb 7e3d 0e91 ab3d 039b ca3c
00000380: d3d4 8b3d ebd7 b0bd 5df7 3e3d a26b 303c
00000390: e100 60bd d075 623d ff66 763d df86 953c
000003a0: 8d47 04bd 3334 e23c 6e88 913d 476c df3b
000003b0: 646d 60bd 92b1 8c3d 6212 133d 25a3 85bd
000003c0: b94e 5dbd daec 1dbd 7e3c e9bb 8e07 c53c
000003d0: d240 e13c 2021 39ba 6230 743d 02d9 8cbd
000003e0: 7812 863d 5b71 1a3d 058c 2e3d b8a0 a5bc
000003f0: 448b 923d 8e7d 6dba bd1d 0d3d f0d9 783d
0.07290164 -0.06445469 0.02091309 0.0414139 0.058091413 -0.07098142 0.004593576 -0.0020855104
0.045291577 -0.017917478 0.06775899 0.07937953 0.066402726 0.021236625 -0.013863763 0.01429599
-0.06449995 -0.01070316 0.026091048 0.078587696 0.08244507 -0.07916167 0.034207463 -0.03421403
0.043089796 0.025050486 0.010486675 0.030435735 0.041127976 -0.044561684 0.06962439 -0.069291525
-0.08697229 -0.038273957 -0.064880006 -0.02680689 0.026474658 0.06765709 0.015432546 0.0074836235
0.007895274 -0.08227507 -0.015354025 0.022232484 -0.067879796 0.05761356 0.011877305 0.046879284
-0.059190862 -0.057747345 -0.050403964 0.071662545 0.027683893 0.022749953 0.05062811 -0.0016560783
0.07220922 -0.070814535 0.0003549376 -0.05305913 -0.08313329 -0.018970687 -0.026743593 -0.008943782
-0.010991919 0.0069093276 -0.033115253 -0.027320389 0.03897115 -0.05920973 0.06853127 -0.07589926
0.06639225 0.07184721 -0.07950576 0.0019205686 0.07334926 -0.007852695 -0.06280447 0.024849135
0.050285343 0.027550794 -0.0104804775 0.05275808 -0.05562093 -0.009905985 0.012926765 -0.0240582
-0.080185086 -0.06025209 0.08921457 0.0060674604 -0.08592717 0.058965567 0.010903506 -0.020401308
-0.07902199 0.042532396 0.08509459 -0.028136814 0.032721497 -0.01763851 0.043367166 -0.07475859
0.06632674 0.04573489 -0.01777199 -0.049820893 0.04895573 -0.041850083 0.06618752 -0.07750441
0.04871597 0.08839 -0.03366391 0.037657797 -0.012098727 0.029548133 0.023640715 -0.03090229
-0.0035621484 -0.05856927 -0.050768588 0.015129696 -0.03304887 -0.087341085 0.047523703 0.08558911
0.05450435 0.058166876 -0.007478234 0.001057185 0.04931522 0.066909425 0.0038488759 0.045816172
-0.03800175 0.051761154 -0.067108616 -0.03737101 0.04567351 0.019631136 0.028311439 -0.07271539
0.042970344 0.0016521565 -0.0608707 -0.046466045 -0.0051834825 -0.053454768 0.08678197 0.0688851
0.0062646144 -0.025895044 0.01963869 0.037996385 0.0675484 -0.074516155 0.07419736 0.013304864
0.01757964 0.08892291 0.0033347218 -0.024584506 0.043459564 0.04500927 -0.03698365 0.011883429
-0.077415206 0.019345688 -0.052857075 0.0069114296 -0.034327395 -0.010901408 0.0005445405 -0.06713824
-0.04040806 -0.017149163 -0.040236257 0.082015224 -0.0115090925 0.036655024 -0.065196976 0.087216355
0.015525175 0.025525775 -0.018663066 -0.009931136 0.020995421 0.012243638 0.007738091 -0.051972363
-0.06778173 0.07723879 0.012703973 0.063399605 0.053632006 0.06613156 -0.07018881 -0.057152744
-0.049615227 -0.07621533 -0.02670834 0.08813323 -0.0446244 0.016424298 0.04508133 -0.082338765
-0.051931825 0.024751231 0.03695243 0.035752583 -0.06255414 -0.041249827 -0.02535158 0.08143481
-0.032783978 -0.006283493 -0.041304804 -0.048080914 -0.055774715 0.062251378 0.08377276 0.024732118
0.068277024 -0.08634933 0.046622623 0.010767849 -0.05468834 0.055288136 0.06015682 0.018252788
-0.0322948 0.027612781 0.071061 0.0068183276 -0.054791823 0.06869806 0.035906203 -0.06525258
-0.054030154 -0.038555957 -0.007117807 0.024051454 0.027496729 -0.0007062126 0.059616454 -0.068773285
0.065464914 0.03770576 0.042614 -0.020218238 0.07155469 -0.00090595416 0.03445219 0.060754716

policy.4.bias f4 [27]
00000000: 1b57 02bd 9c69 4d3d 6510 b1bd 294c c0bc
00000010: 1b52 1eba 8d9e 82bd 680c 723c f145 823c
00000020: dd56 713d c498 af3a 6957 ab3d dd2c 713d
00000030: e19c 7f3d 7b56 62bd aaa9 433c ca7b 27bd
00000040: fcf8 fbbc b65c 6abd f3b2 923d 3134 ffbc
00000050: 82d1 a7bd 24b1 a53d 3341 9fbd 3e24 9a3d
00000060: 3bec 623d 292d c6bb 9686 27bd
-0.03182135 0.050149545 -0.08645705 -0.023473816 -0.00060394563 -0.063778974 0.014773466 0.015902491
0.05892073 0.0013396968 0.083662815 0.058880676 0.06240547 -0.055258255 0.0119423065 -0.04088954
-0.030758373 -0.057217322 0.07163038 -0.031152816 -0.08194257 0.080904275 -0.07776108 0.07526444
0.05540107 -0.006047864 -0.040899836

value.0.weight f4 [128, 10]
00000000: 93a9 8bbe 0dac e1bd b009 9e3e 9d8e 49bd
00000010: f99a 5f3e 2a68 433e e906 0b3e 0e5a 4abe
00000020: ade7 34be 679e 5f3e ea9a 8d3e ee57 63be
00000030: 5a4b 9e3d 0dbd a73d dd8a 2c3d ed8a 1dbe
00000040: 4a28 9a3e f0bb 4c3e 174d 6ebe ba32 3f3c
00000050: bfb7 febd 04c6 d4bd a647 f23d d1f5 2cbe
00000060: c4ff 37be b9cd 12be 86b4 f4bd 3c96 bc3d
00000070: 7080 9d3e 0cd9 80bd d516 dfbd 96b7 00be
00000080: bcd4 edbd 224c bb3d 6ff8 a0be 2864 0cbd
00000090: f5ac 95be 600d 65be 612e 80be ee47 bfbd
000000a0: 2e08 9f3e 5198 20be 6a4a 04bd 35af 1d3e
000000b0: be15 cbbc a9f9 8abd 9718 903e d7ce 713e
000000c0: 6fd7 653d 1c5f 5fbe 3c54 803d 83b4 b9bd
000000d0: ef68 913e 7e2f 91bd de8b 2abe b23a 8a3e
000000e0: 4c7b 793e f33f 3d3e 3449 573e 5712 ad3d
000000f0: 58bb 823e df75 813e 4843 c5bd b77b 29be
00000100: e6c6 6bbe 8c23 68be aef1 4bbd a5f9 e2bd
00000110: 04ea 97be 5468 9ebe 008a 29be 7088 503e
00000120: dbe7 c0bd 0cae 9b3e a2ca 00bd 22ae 473e
00000130: 9c7b 7bbc 3816 c0bd bc04 9ebd db3e 893e
00000140: b08a 9d3e 5b33 0f3e 4aec 8d3e 2039 423e
00000150: 198c 2c3e 3408 843d 25a3 583e 4bf0 703e
00000160: 2c99 ce3c a168 2fbe 1f14 623e d9a1 a03d
00000170: fec5 9ebe 972a 08bd ef35 7d3e 20f7 58bd
00000180: ca7c 853e e2ee 053e da8e 0c3e 8e0e 3e3d
00000190: 5ddb ae3d 8211 7d3d e60d 5f3e 3c03 833e
000001a0: 5c73 c0bd 892e 2ebe cb05 703e 61f8 1e3d
000001b0: ac4a 533e d25b 4d3e 31a4 58be 435e 54be
000001c0: 2d83 8ebe 0381 a33c 32a4 9b3e 2be9 56be
000001d0: cedf 9f3e cab6 24be 9780 8ebe a75d 5bbe
000001e0: a0f8 2ebe b571 7f3e 4056 513e e192 603e
000001f0: 09be 16bd 3477 223e 83b3 91be 9824 5abc
00000200: c56e 58be fd7f a43b d2d7 933d e452 25be
00000210: e7a5 f0bb ad73 f1bd 1522 c93d 4dd4 77bd
00000220: 1bbc b63d 6567 283e 5cc5 433d 6660 963e
00000230: 48b3 2c3e d6cf 6a3e 35b1 c83d 9a00 9bbe
00000240: c8a8 403b a681 77be 4a2e 993e eb1e 8f3d
00000250: f070 25be b8fc 1bbe 88a6 86be 6c48 e9bb
00000260: bb7c 503e f9ed 03bd 50e2 d1bd 74e5 d7bd
00000270: b269 793e 6d35 813e 3642 b2bd a23f db3d
00000280: 390e 2cbe ab04 373e 061d 7abe 0782 773e
00000290: cead 25be 8fb6 16be 3b68 3e3e 9eab 11bd
000002a0: 40d3 15be a96c 043e bb16 1fbe be64 1ebe
000002b0: cbe2 5abe 7c5d 903e a5ae 2e3e b346 bfbc
000002c0: 7f52 f0bd d17d d53d 6e2c 8b3e 3e14 123e
000002d0: 05b2 d33c 957e 2dbd 6cc4 483d ef13 2bbc
000002e0: dba8 253c 67ee e0bd 7ace 843e 9949 b9bc
000002f0: e66a 973e ecc1 7a3e 9b71 c83d 0307 8dbc
00000300: b16f 2d3e 31be debd 3c9a a0be f50b 953e
00000310: 8ef1 913e 84d0 e83d 4497 96be 40cd 0abe
00000320: 27da cabd 2e2d 5ebe cf90 a73d e28b 60be
00000330: c234 1d3e fd77 debc 8da5 1dbe 07cc 0cbe
00000340: 3694 11be cb69 81be d1b7 5ebe 16b1 563e
00000350: 29e3 0a3d fbcf 863e b35b 5b3d dbe4 7b3e
00000360: 5f95 09be 56f7 1bbe 10f2 ddbd 89c6 be3d
00000370: 4e75 8fbd 0e6b 1f3e c0de 933e d07c 8c3e
00000380: 5b1f a1be 7254 e7bd 89ad e3bd 1618 583e
00000390: c01c 0e3e 1bb6 8c3e e584 343d 352f 85be
000003a0: ce1b 863e cb56 0f3d 582e 3fbe a0b9 95be
000003b0: 7073 6a3e 452a eabd 5b8b 073d 9421 2cbe
000003c0: 5057 2b3d 527d 43be 9fb5 2bbe 7c05 a13e
000003d0: 0067 1bbe 08cb 8bbc 419b 39be 0700 333e
000003e0: e767 873e 9ea3 623e 0c6b 25be 1d78 9abe
000003f0: 3a04 543c ddbd 563e f1cc 10be 7e2a 91be
-0.27277812 -0.11019144 0.30866766 -0.049208272 0.21836461 0.19082704 0.13576855 -0.19760916
-0.17666502 0.2183777 0.27657253 -0.22201511 0.07729216 0.081903554 0.042124618 -0.15385027
0.30108863 0.19993567 -0.23271595 0.011669809 -0.124373905 -0.10389331 0.11830072 -0.16890647
-0.1796866 -0.1433629 -0.119484946 0.092083424 0.30762053 -0.062913984 -0.10893027 -0.12570032
-0.116128415 0.091453806 -0.3143954 -0.034275204 -0.29233518 -0.22368383 -0.25035384 -0.093398914
0.31060928 -0.15683104 -0.03229753 0.15398867 -0.02479064 -0.067859 0.2814376 0.2361406
0.056113657 -0.21813625 0.062660664 -0.09067633 0.2840037 -0.070891365 -0.16654918 0.26997906
0.2436344 0.18481426 0.21024019 0.08450764 0.25533557 0.2528524 -0.096319735 -0.165511
-0.23025092 -0.2266981 -0.04979103 -0.11082772 -0.29670727 -0.3093897 -0.16556549 0.20364547
-0.09419223 0.30406225 -0.031443246 0.1950002 -0.015349295 -0.09379238 -0.07715747 0.26805767
0.30769873 0.13984434 0.27719337 0.18967104 0.16850318 0.06446877 0.21155985 0.23529164
0.025219522 -0.17129757 0.22077988 0.0784337 -0.3101043 -0.03324374 0.24727605 -0.05297005
0.2607177 0.13079408 0.13726369 0.0464006 0.08537934 0.061784275 0.21782646 0.25588405
-0.09397003 -0.17009939 0.2343971 0.03881109 0.20633954 0.20054558 -0.21156384 -0.20739083
-0.27834454 0.019958979 0.3039871 -0.20987384 0.31225437 -0.16085353 -0.2783248 -0.21422444
-0.1708703 0.2494572 0.20443058 0.2193103 -0.036802325 0.15865785 -0.2845727 -0.013314389
-0.21136005 0.00502014 0.07218899 -0.16144902 -0.007343996 -0.117896415 0.09820954 -0.0605052
0.08922597 0.16445692 0.04779564 0.2937042 0.16865265 0.22930846 0.097994246 -0.30273896
0.0029397476 -0.2417055 0.29918128 0.06988319 -0.16156363 -0.15233123 -0.26298928 -0.007119229
0.20360081 -0.03220937 -0.10248244 -0.105418116 0.24356726 0.25236073 -0.08704035 0.10705496
-0.168023 0.17872874 -0.24425134 0.24170695 -0.16179582 -0.14718078 0.18594448 -0.035564058
-0.14631367 0.12932076 -0.15536015 -0.15468118 -0.21375577 0.28196323 0.17058809 -0.023349142
-0.11734485 0.10424388 0.27182335 0.14265534 0.025841722 -0.042357046 0.049015447 -0.010441764
0.010111059 -0.10982972 0.2593878 -0.022618102 0.29573745 0.24488038 0.097872935 -0.017215258
0.16937138 -0.1087612 -0.3136767 0.29110685 0.28504604 0.11367896 -0.29412282 -0.13554859
-0.099048905 -0.21696922 0.08181917 -0.21928361 0.15352157 -0.027156824 -0.15395184 -0.13749705
-0.14216694 -0.25276026 -0.21749808 0.2096599 0.033908043 0.26330552 0.053554248 0.2459902
-0.13435887 -0.1523107 -0.108371854 0.09315211 -0.07004796 0.15568182 0.28880882 0.27438974
-0.31469235 -0.112954035 -0.111170836 0.21102938 0.13878155 0.27482685 0.04407205 -0.2601258
0.26193088 0.03499488 -0.18670022 -0.29243183 0.22895598 -0.114338435 0.033091884 -0.16809684
0.041831315 -0.19090775 -0.16768502 0.31449497 -0.1517601 -0.017064586 -0.18125631 0.17480479
0.2644646 0.22132728 -0.16154116 -0.30169764 0.012940461 0.20970865 -0.14140679 -0.2835273

value.0.bias f4 [128]
00000000: ff13 89be d954 293e fe1f 9dbd b756 343e
00000010: fdc5 093c 39e2 eb3d bb49 53bd e240 453b
00000020: de5a 653e 3ecf 9dbc f14f 473d 9ea1 353e
00000030: 53a4 2dbc ff18 c03d 64ba 1dbe f860 67bb
00000040: 7966 82bd bee6 6f3d 6639 97be 1f6b fbbd
00000050: 6975 1cbc 5080 1ebe 1a1f 7d3e 4d21 a7bb
00000060: 9898 a03d 2cbb ecbd f350 7d3e 3dfe 8abe
00000070: 0809 853e 119e 69be ec6e 1ebe 210f 56be
00000080: 7146 4bbc d4c4 1abe 5732 3e3d 2c80 8ebd
00000090: 5b65 29be 395d 253e 4e43 93be 8179 65be
000000a0: bb2f 85be 72c6 b0bd 9426 9cbe bd43 81bd
000000b0: 5154 93be 7a72 47be 6f4a 633e 5751 4a3e
000000c0: c179 3f3e 064e 4fbe 157d 1c3e 43f6 2e3e
000000d0: d178 4cbe 7b47 77bd 4d41 97bd 3f1d 84be
000000e0: 6c6e c53d dad4 4fbe 0295 a13e 0b85 2abe
000000f0: 4525 f4bd 01f0 61be 8095 103e 110f 9f3e
00000100: 5e5b 05be e1fb 0abd 94c9 023c 5944 c03c
00000110: 9b18 4fbe 258c 803e 711e cc3d 4a74 5c3e
00000120: 916f f93d 5caa 99be e095 77be 2e55 1dbd
00000130: 8404 563c cea8 6b3e 5747 8fbe 14b2 9c3e
00000140: 9e25 86be 9a28 253c df83 82be bd1f 423e
00000150: beb6 8abe e367 39be 69d4 493e 10fa 443d
00000160: ed27 b03d 4340 e63d cf19 b43d ab14 483b
00000170: 716b ca3d c19b 75be 1a8e 613e 2f6f 87be
00000180: d977 3abe d7de 10be 4860 2abe b20e a9bd
00000190: 9804 3c3d 1d06 b53d 5038 c3bd b2ba 62bd
000001a0: 5e8f 303e 54f3 91bd 90f6 863e 36a4 4bbe
000001b0: 5790 5bbe a5df 76be c193 0fbe ab55 063e
000001c0: b4c6 08be a476 893e 5607 08bd 3c46 c3bc
000001d0: 7525 6cbe 6b2d 973e 725d f1bd 2869 50bd
000001e0: 59ad 4f3e 9dcb 533e 4931 8bbe 84d5 4d3d
000001f0: 3407 14bd 0f87 fb3c 6599 833e 088a c43d
-0.26773068 0.16536273 -0.07672118 0.17611204 0.0084090205 0.11517758 -0.051583987 0.0030098488
0.22397944 -0.01926386 0.048660222 0.17737433 -0.01059826 0.093797676 -0.15403134 -0.00353056
-0.06367201 0.058569662 -0.2953598 -0.12276291 -0.009549477 -0.15478635 0.24718896 -0.0051004053
0.07841605 -0.11559138 0.24737911 -0.27147093 0.25983453 -0.22814204 -0.15472001 -0.20904209
-0.012406931 -0.15114146 0.046434727 -0.069580406 -0.1654257 0.16148843 -0.28762287 -0.22409631
-0.26012978 -0.086316004 -0.30498183 -0.06311748 -0.28775266 -0.19477263 0.22196363 0.19757591
0.18698789 -0.20244607 0.1528209 0.17086129 -0.19967963 -0.060370903 -0.07385502 -0.25803563
0.09640202 -0.2029604 0.31558996 -0.16652314 -0.11921171 -0.2206421 0.1411953 0.31066182
-0.13023135 -0.033931617 0.00798263 0.02347009 -0.2022423 0.25106922 0.09966744 0.21528736
0.12179483 -0.30012786 -0.24178267 -0.03841131 0.0130626 0.23013613 -0.27984115 0.30604613
-0.26200575 0.010080481 -0.25491235 0.1895742 -0.27092546 -0.18106036 0.19709934 0.04809004
0.08601365 0.11242726 0.08793985 0.0030529897 0.09883774 -0.23985197 0.22026864 -0.26452014
-0.18209781 -0.14147507 -0.16638291 -0.08254756 0.04590282 0.08839057 -0.09532225 -0.055353828
0.1724219 -0.07126489 0.26359987 -0.1988686 -0.2144178 -0.24108751 -0.14021207 0.13118617
-0.13357049 0.26848328 -0.03321012 -0.023837201 -0.23061164 0.2952684 -0.117854014 -0.050881535
0.2028097 0.20683141 -0.2718604 0.050252452 -0.036139682 0.03070405 0.25702968 0.0959664

value.2.weight f4 [128, 128]
00000000: 7f28 a23d 2f8c 8c3c 9bdf 3cbd f261 333c
00000010: 7df0 a5bd cb26 633d e547 acbd 9090 90bd
00000020: 59b3 6abc 6ebb 243d c3e8 873d c4c5 b1bc
00000030: b66a 5abd ec89 a4bd 99c3 77bd e7d7 67bd
00000040: 25c4 8fbd ac8c 913d 673b 94bd fe60 e6bc
00000050: 1a83 afbd 85ab 883d 8a44 193d a922 94bd
00000060: 13b9 74bd 5efd d63c 5abb 6ebd 1e34 ddbb
00000070: 16c5 f4bb 9d8c 923c fba0 573d 6fa6 0bbc
00000080: 38cd aabd cdd2 cf3c 4df5 783c d3c5 a6bd
00000090: 0469 f93b 1ae2 98bd b8b7 5a3d 1c92 023d
000000a0: 7dc9 99bd 12ce 8dbd 8f21 0a3d 3b3c 2b3d
000000b0: 6259 ce3c cf3b aa3d 7e70 aabd d353 863d
000000c0: c44a 903d 997d 9fbd ab63 6bbc be7f 313d
000000d0: 079e 8bbd 1fe8 3d3d 9137 abbd 295e 85bd
000000e0: 81d3 17bd 105a f83c 72f0 a13d e85e b43d
000000f0: 9d36 92bd 85fe 773b ee26 9e3d 1af0 ae3d
00000100: df25 90bb 64c3 40bd 384f a1bb 0fa7 073d
00000110: 4c3b d2bc 216f ac3c 0bbe 90bc 632c b53c
00000120: 251c b2ba d1be 2b3d 86a3 b03c 0caa 05bc
00000130: 90e1 4f3c bb33 7e3d 0e7c 7fbd 27fa 90bd
00000140: b066 6a3c 5fb2 5abd d79d 8b3c cf87 15bd
00000150: 3a72 643d 24f6 633c 55c4 43bd 7a75 adbd
00000160: df97 27bd c460 393d 62d3 13bc 5d1e 97bb
00000170: 8500 923d 6dc9 e53c 0f1a bc3c a974 7b3c
00000180: e73d e73c 9cf9 0abc d072 4cbd 9806 80bd
00000190: 7058 623c f90b 983d 8520 0dbd 0c19 91bd
000001a0: 12e0 9fbd e932 b83c 5ad7 ae3c a911 b03d
000001b0: 190b d4bb 224e ab3b d292 0e3c 75aa 033c
000001c0: 9438 85bd 52a2 813d 28e8 4fbc 7b29 b83c
000001d0: 49e1 18bd 5e25 92bd b4f4 973d b01e 88bd
000001e0: cea5 37bd 57c8 fbbc 7c0c c43c 808f 60bb
000001f0: 2313 823d 77cd c63c d40a 5bbd 3bf2 653d
00000200: 0210 fd3c e2f8 433d 9ccf a3bc c9a8 38bc
00000210: 1fd8 5d3c 9af8 5e3d 8b0f d9bb 286d b4bd
00000220: a232 3e3d d273 ecbc acea 79bd 5baa dd3c
00000230: 9cdb 853d a5db 86bd 85ec 86bd 436d 92bd
00000240: 56bd 43bd 2c4f 38bd 2988 ca3c 6722 9d3d
00000250: 7e5a 92bd 1d81 a03b 9eb1 1ab9 3401 4c3d
00000260: 715e 93bc 2b95 133d c9bd 28bd aac3 9c3d
00000270: 577f 503d d33d a13c 9647 fb3c 23da 123d
00000280: 411f af3c f787 fc3c 9d2f 8c3c ca26 513c
00000290: c8d5 533d baf8 673d d1c5 56bd ed51 4ebd
000002a0: a2e2 123d 4637 83bd a6fb 0cbd b3eb a7bc
000002b0: 70c7 e53c c5bd 03bd f3a0 45bd c251 963c
000002c0: 5337 75bd db72 a2bd 57f1 c9bc 3def a2bd
000002d0: 4756 c43c ec5b 183d 10a3 7fbd 5634 22bd
000002e0: b93b b03d 78dd b8ba 1508 04bd 7ebf e7bc
000002f0: 94e7 a8bc d2d9 c43b 6422 c4bc 174f c63c
00000300: af65 213d dee6 fa3b 9628 61bd b406 25bc
00000310: 9f0e 2a3b e8ea 4a3d 1fb5 d93c 2a14 183c
00000320: eebb 7c3d 9175 eabc 6ce6 b43d bb33 78bb
00000330: 4bc2 8ebd 168f 90bd eb21 0bbd 35c3 06bd
00000340: e978 1f3d 1eb2 a2bd d56a 6dbc 0278 afbd
00000350: ba24 e73c 36b7 793c bfb1 82bd 5c69 a83c
00000360: 46f1 ae3d a118 04bd e967 8ebd 77d1 af3d
00000370: 1086 a03c 15ed ad3d 58d4 c3bc 03b7 3cbc
00000380: 1dfd 493d d026 42bd e3d5 783d ae8b f3bc
00000390: bd4c f53c 15bc d0bc 9692 d23c a30c aebd
000003a0: c5e6 b4bb b612 5dbc b589 723d 547e 4cbd
000003b0: 69a1 7bbd 6aa0 20bd 42fb 99bc 75ca 83bd
000003c0: ac37 323d 709a d33c 2716 19bc 65c0 96bd
000003d0: c2db 22bd e903 d7bc 421c a73c 22ff c6bc
000003e0: 76ac 58bc 8bca 943d 7f14 b7bd d48b 52bd
000003f0: 9d2e 84bd 01e6 853d 4874 bcbc 95a4 efbb
0.0791788 0.017156688 -0.046111684 0.010948645 -0.0810251 0.055456918 -0.0841215 -0.07058823
-0.014324986 0.04021781 0.06636193 -0.021700747 -0.053324424 -0.08034119 -0.06048927 -0.056602385
-0.070198335 0.07106909 -0.072378926 -0.028122421 -0.085699275 0.0667334 0.03741888 -0.072331734
-0.059746813 0.026243862 -0.05828414 -0.0067505976 -0.0074697835 0.017889315 0.052643757 -0.008523568
-0.083399236 0.025369072 0.015195203 -0.08143201 0.007611396 -0.074650005 0.053397864 0.031877622
-0.07509134 -0.069240704 0.03372341 0.041805487 0.025189105 0.08312189 -0.083222374 0.06558957
0.070455104 -0.07787628 -0.014367024 0.043334715 -0.06817251 0.046363946 -0.08360208 -0.065121
-0.03706694 0.030316383 0.079071894 0.088071644 -0.07139323 0.0037840914 0.07722269 0.085418895
-0.004399046 -0.04706134 -0.0049227737 0.033118304 -0.02566304 0.021049084 -0.017668745 0.022115892
-0.001358871 0.041930024 0.021562349 -0.008158218 0.012688056 0.062061053 -0.062374167 -0.07078963
0.014306709 -0.053392764 0.017043037 -0.03650647 0.055772997 0.013913665 -0.04779466 -0.084696725
-0.04091632 0.0452583 -0.009022566 -0.004611774 0.07129005 0.028050149 0.022961644 0.015347638
0.02822776 -0.008482363 -0.04991418 -0.06251258 0.01381503 0.074241586 -0.03445484 -0.070848554
-0.0780641 0.022485213 0.021342922 0.085971184 -0.0064710495 0.00522782 0.008701997 0.008036246
-0.06504932 0.06329788 -0.012689628 0.022480717 -0.037324224 -0.071360335 0.0741972 -0.06646478
-0.044835858 -0.030735178 0.023931734 -0.003426522 0.06351306 0.024267895 -0.053477123 0.056139212
0.030891422 0.047844775 -0.019996457 -0.01127071 0.013540297 0.054436304 -0.0066241673 -0.088098824
0.046435006 -0.028863821 -0.061014816 0.02705877 0.06536028 -0.065848626 -0.06588081 -0.07149746
-0.047787987 -0.04499738 0.02472313 0.07672577 -0.07146166 0.004898204 -0.00014752752 0.049805835
-0.01798937 0.03603093 -0.04119662 0.076545075 0.05090269 0.0196828 0.030673783 0.035852563
0.021377208 0.030826552 0.017112548 0.012765596 0.05171755 0.05663369 -0.052434746 -0.0503711
0.035860665 -0.06407027 -0.03441968 -0.020498132 0.0280492 -0.0321634 -0.048249196 0.018349532
-0.059867214 -0.07932063 -0.024651213 -0.07955787 0.023966921 0.03719704 -0.062411368 -0.039600693
0.08605141 -0.0014104089 -0.03223427 -0.028289553 -0.020618238 0.0060074115 -0.02394218 0.024207635
0.039403614 0.007656916 -0.054970346 -0.010072399 0.0025948656 0.04954043 0.026575623 0.009282151
0.06170266 -0.028620513 0.08833012 -0.003787263 -0.06970652 -0.070585415 -0.033967894 -0.032901008
0.03893367 -0.079441294 -0.014490803 -0.085678115 0.028215755 0.015241435 -0.063815586 0.020558052
0.08542113 -0.03225005 -0.06953413 0.08584874 0.019595176 0.084924854 -0.023904964 -0.011518243
0.049313653 -0.047400296 0.060750853 -0.02972969 0.029943818 -0.02548031 0.025704663 -0.08498504
-0.005520674 -0.013493231 0.05921336 -0.049925163 -0.06143323 -0.039215483 -0.018796567 -0.064351
0.043510124 0.025830477 -0.00934366 -0.07360915 -0.03976036 -0.026246982 0.020399217 -0.024291579
-0.013224712 0.072651945 -0.08939456 -0.05140288 -0.06454203 0.065380104 -0.023004666 -0.007313321

value.2.bias f4 [128]
00000000: 2477 a1bd bae3 1ebd b245 96bd 5c2e a2bd
00000010: 2f3e ad3d dac8 aa3d d8d3 88bd c6b3 0b3d
00000020: 9ea8 c83c 47b5 2bbd 2402 f93c e718 1c3d
00000030: 94e9 483c de92 ad3d 1038 08bd 5f84 9f3d
00000040: fd92 5bbd 423b a23d 0d7e 9e3d 1fb3 aebc
00000050: 4ce4 95bd 11b8 a1bc 6967 62bd d7d2 90bd
00000060: de07 97bd 9246 a83b c6e5 2f3d 5e5c 92bd
00000070: 6273 473d 6d5e 9fbc f39a 95bc e2be 8e3d
00000080: 5608 9b3c 9ab8 9c3d bbd5 073d 7ee1 56bd
00000090: 3089 753d ca0c 19bd 4aaf d2bc 160c b5bc
000000a0: 8e11 7f3d eeb5 7cbc a3e7 58bd db37 41bc
000000b0: ec4c 85bd d148 7b3d 6742 a8bd 9338 71bd
000000c0: 6198 ac3d 4a29 cfbc b9d2 063d 42bb 0e3d
000000d0: bc9c 78bd c70e 4b3d 34f7 7e3d 9636 4dbd
000000e0: e38d 92bd 1742 7d3d 8f4a 673d 89f7 1abd
000000f0: ef56 f63c 2fd7 cc3c b605 09bc 3578 a13d
00000100: f2e3 813d 1014 9bbd 2b63 63bd f671 1dbd
00000110: 6c7b a23d d0ec b43b fd4c 983d 1b71 89ba
00000120: faa5 743b 8239 1e3c b08d a9bd 01cd 8dbb
00000130: b7ee b63c 70df 3f3c 85b3 67bc 86fc a0bd
00000140: 7cd7 b03d f18d 83bd ca43 90bd 9467 9d3d
00000150: 00c4 93bd 3808 26bd 9086 39ba 12bd 81bd
00000160: 741a b03c 15e1 5dbd 3b45 88bd a6e1 823d
00000170: 168e a6bd 22f2 99bd 4124 543d 59d9 5e3d
00000180: 2c11 853d 5f7e ad3d 319a 863d aff5 16bd
00000190: c6e4 a73d 27c0 4fbc 7d26 71bd 6dac 583d
000001a0: bcd5 48bc 26e2 90bd bb31 f43c 7926 9cbd
000001b0: 89b3 1c3d b595 7f3d cb78 8d3d 541c 20bd
000001c0: bf8d 36bd 1ef3 a5bd 29f2 6c3d f3fc acbb
000001d0: 8ecd daba 169c 803d 7cf6 513d 4556 5ebd
000001e0: 920a 943d 62a9 043d 29ac cebc 8479 7f3d
000001f0: 11eb 643b d6cb 043d 874a 5cbd e6c5 cf3b
-0.078840524 -0.038791396 -0.07337512 -0.079189986 0.08459126 0.08339091 -0.06681031 0.034106992
0.024494465 -0.041920926 0.030396529 0.038109686 0.012262721 0.08475278 -0.03325659 0.0778892
-0.053606976 0.07921459 0.07738886 -0.021325646 -0.07318935 -0.01974109 -0.0552744 -0.070714645
-0.073745474 0.0051353658 0.04294374 -0.07146524 0.048694022 -0.019454205 -0.018262362 0.06970002
0.018924873 0.076523975 0.033162814 -0.05246114 0.059945285 -0.037365712 -0.02571835 -0.02210049
0.0622726 -0.015424235 -0.05295528 -0.011793102 -0.06508812 0.06134874 -0.0821579 -0.058891844
0.084275015 -0.025288243 0.032915805 0.03484655 -0.06069635 0.04957464 0.06224747 -0.050100885
-0.07155969 0.061830606 0.05646759 -0.037833724 0.03007075 0.025004951 -0.008363178 0.07884256
0.06342305 -0.07572186 -0.055514496 -0.03843876 0.07933697 0.0055213943 0.07436559 -0.0010485979
0.0037330375 0.009657266 -0.08278978 -0.004327417 0.022330625 0.0117109865 -0.014141922 -0.07860665
0.086348504 -0.064235575 -0.0704418 0.076857716 -0.072151184 -0.04053518 -0.00070772413 -0.063348904
0.021496989 -0.054169733 -0.0665383 0.06390695 -0.081325695 -0.07516886 0.051792387 0.054406498
0.06497416 0.08471369 0.065723784 -0.036855396 0.08197932 -0.01268009 -0.058874596 0.052898813
-0.0122579895 -0.070743844 0.02980887 -0.076245256 0.038257156 0.06239863 0.06907805 -0.039089516
-0.044568773 -0.081030115 0.05784813 -0.0052791773 -0.001669334 0.06279771 0.051260456 -0.05428149
0.072285786 0.0323881 -0.025228577 0.062371746 0.003493015 0.032420956 -0.053782012 0.00634073

value.4.weight f4 [1, 128]
00000000: 0429 39bc 278d a53d ac3f 6a3c 318c c4bc
00000010: 9e57 b03c 6e63 9f3d 0c32 3aba 391c a3ba
00000020: e5ee b3bd dd64 aa3d 720c b0bc 4337 98bc
00000030: 2697 5c3d 2c97 41b8 c1d9 81bc 3ae0 5d3d
00000040: ab3a d2bc 758a b13d 05f4 f43c e68f 24bd
00000050: a653 923d 7f7f a2bd 2c72 76bd 44ef 8a3d
00000060: d4c9 153d 6123 87bd 6807 973c 436c 053b
00000070: 4f0a f2bc ff58 373c 46f7 6bbd 1e55 673d
00000080: 1dea a6bd 8dc7 173d 6d0e 873d 9073 73bd
00000090: c8df a23d aa8e 563d dda0 83bd 5d6f 92bd
000000a0: a231 9fbc a8e6 873c ac0b 30bc a0d7 ef3c
000000b0: b711 abbd 5ceb ed3a d95b 5a3d 750b 61bd
000000c0: 6c2d 413d c42d eb3c 0181 bd3c 98d1 93bc
000000d0: 0040 ffbc a7b0 773d 20f4 013d f478 e3bc
000000e0: bcc7 8b3c ab3e b5bd 6abe abbd 08f3 933d
000000f0: c126 a33c ec70 9c3c 0f27 7abd 1b3f 793c
00000100: ee9b 4ebd c384 9ebd e51c 2f3d 0732 81bd
00000110: 5de1 94bc 01ab ad3d f8fb 683c 622d b2bd
00000120: a931 6fbd dfde 65bd d965 a43d cc2b cabb
00000130: d18b 543c 6225 9cbd aeb4 263d 2ecb 3abd
00000140: bbf4 6b3d a78c 863c 448a 813d 9d5e 06bd
00000150: adba 98bc 1170 8abc 2296 a6bc 7063 793d
00000160: c1b0 31bc e162 a43d 5a01 6abc a2e2 76bd
00000170: 6e20 97bd 6690 da3c 225a 90bd 10a5 a6bd
00000180: 3d70 92bd 0a47 393d caa8 5d3b f0f1 64bd
00000190: d631 94bd 16fe 933d 27c5 5a3d 3314 173d
000001a0: 2402 9c3c c38d 3e3d b44a 85bd a5fb 04bb
000001b0: 6375 2bbc 40b0 983d 6fd8 8c3c 2ace adbd
000001c0: cba2 983d 2225 463d 9d1e 59bc d7ce 653c
000001d0: 4411 223d 62cd 433d 5729 ec3c ee21 08bc
000001e0: b7b8 8abc 6082 103c 67ef 69bd 75db 93ba
000001f0: 2949 533c 9fbc 103d bf7c 3e3d 85aa 7b3d
-0.011301283 0.08083563 0.014297407 -0.02399263 0.021526154 0.077826366 -0.00071027945 -0.0012444324
-0.087858 0.083200194 -0.02149031 -0.018581038 0.053855084 -4.6155576e-05 -0.015850903 0.054168917
-0.02566274 0.08668987 0.029901514 -0.040176295 0.07144861 -0.07934474 -0.060167477 0.067839175
0.03656943 -0.06598545 0.018436149 0.0020358718 -0.029545931 0.011190652 -0.057608865 0.05647766
-0.08150122 0.03705554 0.065945484 -0.05943638 0.07952839 0.05238215 -0.064271666 -0.07150147
-0.019432846 0.016589478 -0.01074497 0.029277623 -0.08352988 0.0018151808 0.05331025 -0.054942567
0.04716246 0.028708346 0.023132803 -0.018044278 -0.031158447 0.060471203 0.031726956 -0.027767636
0.017063014 -0.088498436 -0.08385928 0.07224089 0.01991594 0.019096814 -0.061072405 0.015212799
-0.050441675 -0.07740166 0.042752165 -0.0630837 -0.018173868 0.08479882 0.01422023 -0.08700062
-0.05839697 -0.05612075 0.080272384 -0.006169772 0.012972788 -0.07624318 0.040699653 -0.045603923
0.05760644 0.01642449 0.063252 -0.032805074 -0.018643701 -0.01689914 -0.02033526 0.060885847
-0.010845364 0.08026672 -0.014282549 -0.060274728 -0.07379232 0.026680183 -0.070484415 -0.08136952
-0.07150314 0.045233764 0.003382253 -0.055894792 -0.07236068 0.072261974 0.053410675 0.036884498
0.01904399 0.046521913 -0.06508389 -0.0020291593 -0.010464999 0.07455492 0.017193047 -0.08486588
0.07452925 0.048375256 -0.013251928 0.014026365 0.039567247 0.04780329 0.028828306 -0.008308871
-0.016933782 0.008820146 -0.057113077 -0.0011280613 0.012895861 0.035336133 0.046505686 0.061441917
